models_by_blocks_mnist/mnist_model_jit_3blocks.pt (torch, 853044 bytes, 22 tensors)

weight f4 [32, 1, 3, 3]
0	0x3d86729d	0.065648295
1	0xbec85609	-0.3912814
2	0x3e324be3	0.17411761
3	0xbdafa336	-0.08576052
4	0x3dc6bc7c	0.09703919
5	0x3de898de	0.11357282
6	0xbdb4fbf7	-0.08837121
7	0x3da4c563	0.08045461
8	0x3c48058b	0.012208353
9	0x3d7d9bc4	0.061916128
10	0xbdec6745	-0.115431346
11	0x3d33952f	0.043843444
12	0xbd16971d	-0.036765207
13	0x3de34d7f	0.110987656
14	0xbd971e33	-0.07378807
15	0x3e593720	0.21212435
16	0x3d4b99f4	0.049707368
17	0xbe7d5d26	-0.24742565
18	0xbe357d62	-0.17723611
19	0xbd8e82ec	-0.06958565
20	0xbdda1074	-0.106476694
21	0xbe3ed99a	-0.18637696
22	0xbd55994e	-0.052148156
23	0x3e5075ee	0.20357487
24	0x3d9ce9e7	0.07661801
25	0xbebd4864	-0.36969292
26	0x3e5f6884	0.21817213
27	0x3d86e956	0.06587474
28	0x3e77856b	0.24171989
29	0x3e650aa0	0.22367334
30	0xbeb4f999	-0.35346678
31	0xbebe0b05	-0.37117782
32	0xbe20bf48	-0.15697968
33	0x3e9d51b5	0.307264
34	0xbadbe4d6	-0.0016776572
35	0x3d8b2dde	0.06795858
36	0xbda04afb	-0.078268014
37	0x3ead3833	0.3383194
38	0xbe063c55	-0.13108952
39	0x3e7e9ba7	0.24864064
40	0x3cb4e5e9	0.022082286
41	0xbe8716a6	-0.26384467
42	0x3df3347a	0.118752435
43	0xbe58b044	-0.2116099
44	0xbd176c4c	-0.036968514
45	0xbdee0fe2	-0.11624123
46	0xbe1ea0be	-0.15491006
47	0xbece05dc	-0.40238845
48	0xbdbd64e1	-0.09247757
49	0x3d5fa3fc	0.054599747
50	0xbe0faf7e	-0.14031789
51	0x3eb05498	0.3443954
52	0x3e3969c6	0.18106756
53	0xbd282c64	-0.04105796
54	0xbeb76a5e	-0.3582334
55	0x3e2aedc2	0.1669226
56	0x3d95f6b7	0.07322448
57	0xbe6b3ecd	-0.22973175
58	0x3e8506fd	0.25981894
59	0x3e0b9739	0.13631906
60	0x3e4f6861	0.20254661
61	0xbdbbfc81	-0.09179021
62	0xbe11d460	-0.14241171
63	0xbc6efd5c	-0.014586773
64	0x3b8eb559	0.0043551144
65	0xbe9d3e8d	-0.30711785
66	0xbe71397b	-0.23557083
67	0x3e4cc414	0.19996673
68	0xbd6c9e05	-0.057767887
69	0x3dc9314f	0.09823858
70	0xbc14529d	-0.0090529
71	0x3e09f29a	0.13471451
72	0x3dab3a57	0.08360737
73	0x3e13dc31	0.14439465
74	0x3e639f5a	0.22228757
75	0xbe7edff6	-0.24890122
76	0x3e3580bb	0.17724888
77	0xbe2ef51b	-0.17085688
78	0xbe893168	-0.26795506
79	0xbdff2f71	-0.124602206
80	0xbdee548d	-0.116372205
81	0x3e487305	0.19575126
82	0xbe7b0615	-0.24514039
83	0xbea0a8ab	-0.31378683
84	0x3e97966e	0.29606956
85	0xbdce4565	-0.1007183
86	0x3d30c57f	0.043157097
87	0x3dd0ffc7	0.10205036
88	0xbe70886e	-0.23489544
89	0x398efaa2	0.00027271087
90	0x3d7af19a	0.061265565
91	0xbe5199b7	-0.20468794
92	0xbd39c425	-0.045353074
93	0x3e36d3f4	0.17854291
94	0x3da68e94	0.08132663
95	0xbe85ba70	-0.26118803
96	0xbd8206dd	-0.06348965
97	0x3e8e1880	0.27753067
98	0xbdab5df3	-0.08367529
99	0x3e65e52a	0.224507
100	0x3e1fdac6	0.15610799
101	0xbe824c89	-0.25449017
102	0xbea12906	-0.3147661
103	0x3e8a9e57	0.2707393
104	0xbcec88bd	-0.028873796
105	0x3df9dbce	0.122001275
106	0x3ca1d897	0.019756598
107	0x3e3b20c2	0.18274215
108	0x3e535af4	0.20640165
109	0x3e43358a	0.19063392
110	0xbe82a4d0	-0.25516367
111	0x3da1992a	0.07890542
112	0x3e3640fd	0.17798229
113	0x3dbda346	0.092596576
114	0x3c7b5556	0.01534017
115	0xbe9e5eaa	-0.30931598
116	0xbee58988	-0.4483149
117	0xbe84ce14	-0.25938475
118	0x3d5f4595	0.054509718
119	0x3e8bf165	0.27332607
120	0xbe8e031d	-0.2773675
121	0x3e701a70	0.23447585
122	0xbdc029b7	-0.093829565
123	0xbead804f	-0.33886954
124	0xbdb2159b	-0.08695527
125	0x3e3f674c	0.18691748
126	0x3eb9ff1a	0.3632744
127	0xbdf330b5	-0.118745245
128	0x3e2658f5	0.16244872
129	0x3e55a4f0	0.208637
130	0x3dc286c2	0.09498359
131	0x3e31b2f4	0.17353421
132	0x3e8bea24	0.27327073
133	0x3e8898ba	0.2667902
134	0x3e189e78	0.14904201
135	0xbde9a4ec	-0.114084095
136	0xbe3e1a29	-0.18564667
137	0xbe6e4caf	-0.2327144
138	0xbe05c03f	-0.13061617
139	0xbda94f69	-0.082670994
140	0x3e546fc2	0.20745757
141	0xbc96efff	-0.018424986
142	0xbd395a83	-0.045252334
143	0x3e3cbeec	0.18432206
144	0x3d541262	0.051775344
145	0x3d25b2b8	0.040453643
146	0x3e5f1379	0.21784772
147	0x3d7a347f	0.06108522
148	0x3eaac0cd	0.3335022
149	0xbba9a9b7	-0.0051777023
150	0xbd4a52b2	-0.04939527
151	0xbeb55a14	-0.35420287
152	0xbe960eed	-0.29308262
153	0xbe46c845	-0.19412334
154	0xbddfedae	-0.10934006
155	0x3e73e7cc	0.23818892
156	0xbd1bc83d	-0.03803276
157	0xbe8fbc0c	-0.28073156
158	0x3dca7cff	0.09887122
159	0x3e171fac	0.14758176
160	0x3e2224d9	0.15834369
161	0xbe82cc4a	-0.25546485
162	0x3d8c28e1	0.068437345
163	0xbdc557b4	-0.09635869
164	0xbd49118e	-0.049089007
165	0xbe864400	-0.26223755
166	0xbdd1dd5e	-0.102473006
167	0xbda2359c	-0.079203814
168	0x3e0b8645	0.13625439
169	0x3e286d14	0.1644786
170	0x3df7c8f8	0.120988786
171	0x3e9fb863	0.31195363
172	0x3e5e448b	0.21705835
173	0x3e340aa7	0.17582189
174	0xbca821d9	-0.020523952
175	0xbe56e1a7	-0.20984517
176	0x3e95628e	0.29176754
177	0xbe287c89	-0.16453756
178	0xbdf77192	-0.12082209
179	0xbeacfa17	-0.33784553
180	0xbe0fabfe	-0.14030454
181	0xbe485984	-0.19565398
182	0x3ea51ad0	0.3224702
183	0xbd30ec6b	-0.043194216
184	0xbea4fb6e	-0.32223076
185	0xbc3457a1	-0.0110072205
186	0x3d5be537	0.053685393
187	0x3d00e22e	0.0314657
188	0xbe839c2b	-0.25705084
189	0xbe92659a	-0.2859314
190	0xbd3ffe7a	-0.046873547
191	0x3e2bf92b	0.16794269
192	0xbeb2df96	-0.34936208
193	0x3dd8e606	0.105907485
194	0x3e9f81ee	0.31153816
195	0x3e2b5ebb	0.16735356
196	0xbe40aba4	-0.18815476
197	0x3e27a26d	0.16370554
198	0xbea1d076	-0.31604356
199	0x3e7ded10	0.24797463
200	0xbe1dbdc0	-0.15404415
201	0x3e2f2b10	0.17106271
202	0xbc06aa6a	-0.008219341
203	0xbd811039	-0.06301922
204	0xbd3932c8	-0.045214444
205	0x3b4fbe23	0.0031699024
206	0x3e138802	0.14407352
207	0xbdc74eda	-0.097318366
208	0xbdcade90	-0.09905732
209	0xbeae03e9	-0.33987358
210	0x3e6c4740	0.23074055
211	0x3e758a18	0.2397846
212	0x3e98cf9e	0.298459
213	0x3e1393a6	0.14411792
214	0xbe908147	-0.2822363
215	0xbe2c1307	-0.16804133
216	0x3e6d08f5	0.23147948
217	0xbe9ccebe	-0.30626482
218	0x3e8d63f8	0.27615333
219	0xbe810d2f	-0.2520537
220	0xbe913a61	-0.28364852
221	0x3e3bac4e	0.18327448
222	0xbe86cd5a	-0.26328546
223	0xbdea2f2d	-0.11434779
224	0x3e718354	0.23585254
225	0x3e05d0c8	0.13067925
226	0x3e46f234	0.1942833
227	0xbdf45622	-0.11930491
228	0xbe8993a7	-0.26870462
229	0x3eaf639a	0.34255677
230	0xbe195792	-0.14974812
231	0xbe74e2ee	-0.23914692
232	0x3db0623c	0.08612487
233	0xbe990833	-0.29889068
234	0x3e355050	0.17706418
235	0x3e48d8c2	0.19613937
236	0xbe8d68a4	-0.27618897
237	0xbe91f27e	-0.2850532
238	0x3d0d9aa7	0.034571316
239	0x3e3415b4	0.17586404
240	0xbadded7a	-0.0016931735
241	0xbe5a46ae	-0.21316025
242	0xbd89fc17	-0.067375354
243	0xbeae619a	-0.3405884
244	0xbe9f9e03	-0.3117524
245	0xbe640b41	-0.22269918
246	0x3e90b6b2	0.28264385
247	0x3e679e72	0.22619036
248	0xbdee716e	-0.11642729
249	0xbb357167	-0.0027686001
250	0x3dd97103	0.106172584
251	0x3dbfce7f	0.09365558
252	0xbdfdad4c	-0.123865694
253	0x3e5171c1	0.2045355
254	0x3e606af0	0.21915793
255	0xbd6a3306	-0.057177566

bias f4 [32]
0	0xbe7c611f	-0.24646424
1	0x3e7dac81	0.24772836
2	0x3e1b32cd	0.15156098
3	0x3c3d9344	0.011570755
4	0xbe645841	-0.22299291
5	0xbe12b2ed	-0.14326067
6	0xbc4ac720	-0.012376577
7	0xbe3adb22	-0.18247655
8	0xbe445adc	-0.19175285
9	0xbc9159de	-0.017743047
10	0xbe120af8	-0.14261997
11	0x3e09aea3	0.13445525
12	0xbd7e5e2c	-0.062101528
13	0xbd3a4e60	-0.0454849
14	0xbe1ba31f	-0.15198945
15	0xbe89d1ba	-0.2691782
16	0x3eafcaf2	0.34334522
17	0x3d888165	0.06665305
18	0x3ea2f6d8	0.31828952
19	0xbc992223	-0.018693035
20	0xbc752fed	-0.01496504
21	0xbeaa6dd4	-0.33286917
22	0xbe1f586d	-0.15561076
23	0x3e5c3228	0.21503508
24	0xbe91270a	-0.28350097
25	0xbdd0aaaa	-0.101888016
26	0x3e5b1d65	0.21397932
27	0x3e51399b	0.20432131
28	0x3e10aef1	0.14129235
29	0xbdc3d530	-0.09562147
30	0x3d002138	0.03128168
31	0xb9dadf9e	-0.00041746808

weight f4 [32]
0	0x3f568f0a	0.8381201
1	0x3f4f0532	0.808673
2	0x3f95dd82	1.1708224
3	0x3f83b517	1.0289639
4	0x3f8d6804	1.1047368
5	0x3f7db9e7	0.9911179
6	0x3f5b8926	0.85756147
7	0x3f79dc2e	0.9760159
8	0x3f8bf49f	1.0934027
9	0x3f8aca1c	1.0842929
10	0x3f94bfcf	1.1621035
11	0x3f458584	0.77156854
12	0x3f54f25d	0.83182317
13	0x3f91fcd3	1.1405281
14	0x3f4ce0fc	0.800308
15	0x3fa0f9d5	1.2576243
16	0x3f860be2	1.0472376
17	0x3f75e1f8	0.96047926
18	0x3f88e439	1.0694648
19	0x3f78cd4a	0.97188246
20	0x3fa4df6a	1.288068
21	0x3f4d586b	0.8021304
22	0x3f46c583	0.7764513
23	0x3f4a61d3	0.7905552
24	0x3f842d64	1.0326352
25	0x3f7dbd83	0.99117297
26	0x3f855eee	1.0419595
27	0x3f8b20b0	1.086935
28	0x3f4bef56	0.7966207
29	0x3f66ab31	0.9010497
30	0x3fa1868d	1.2619187
31	0x3f697042	0.91186917

bias f4 [32]
0	0xbe2878f6	-0.16452393
1	0xbdc76972	-0.09736909
2	0xbe0e00e6	-0.1386753
3	0xbe6b4324	-0.22974831
4	0xbdc83bff	-0.09777068
5	0xbc1b7d8c	-0.009490382
6	0xbe1bb214	-0.1520465
7	0xbc04f75b	-0.008115615
8	0xba3257b1	-0.0006803228
9	0xbd935f0c	-0.07195863
10	0xbe31f334	-0.17377931
11	0xbe5763c7	-0.21034156
12	0xbe4bd78a	-0.1990644
13	0xbe1113f2	-0.14167765
14	0xbe2ef401	-0.17085268
15	0x3e2b7aa1	0.16745998
16	0xbd3f9e49	-0.046781812
17	0x3b51fa3a	0.0032040016
18	0xbc24b4e6	-0.010052895
19	0xbdf16eed	-0.117887355
20	0x3e089f4a	0.13342014
21	0xbe78a2a9	-0.242808
22	0xbe357800	-0.17721558
23	0xbe105de3	-0.14098315
24	0xbe1bed6d	-0.1522729
25	0xbe064cda	-0.13115254
26	0xbcb564f8	-0.022142872
27	0x3d637c70	0.055538595
28	0xbdfa1b47	-0.12212234
29	0xbe2492a3	-0.16071562
30	0x3d86f97f	0.06590556
31	0xbcdb27e7	-0.026752425

running_mean f4 [32]
0	0xbe7b6b33	-0.24552612
1	0x3e7d1f2b	0.24718921
2	0x3e1774d5	0.14790662
3	0x3cd141de	0.025544103
4	0xbe66ac6f	-0.22526716
5	0xbe19df3b	-0.15026562
6	0xbc9b91bc	-0.01899039
7	0xbe40dd29	-0.18834366
8	0xbe4c5e64	-0.19957882
9	0xbc9886fb	-0.018619051
10	0xbe15957a	-0.14607802
11	0x3e0d98ff	0.13827895
12	0xbd9840bd	-0.07434223
13	0xbd5f1962	-0.054467566
14	0xbdfbe0e3	-0.12298753
15	0xbe8c79e1	-0.27436736
16	0x3eaca2f2	0.33718067
17	0x3d89e34c	0.067328066
18	0x3ea51fa8	0.32250714
19	0xbc796701	-0.015222312
20	0xbc8a13e9	-0.016855197
21	0xbea94591	-0.33060887
22	0xbe2470a1	-0.1605859
23	0x3e523f7f	0.20532034
24	0xbe8d630a	-0.27614623
25	0xbdf254a5	-0.11832551
26	0x3e55069c	0.20803303
27	0x3e4537df	0.19259594
28	0x3e271c69	0.16319431
29	0xbdc6d161	-0.097079046
30	0x3d0cf173	0.03440995
31	0x3bdbc485	0.0067067766

running_var f4 [32]
0	0x3d60dbc7	0.054897096
1	0x3d7c34cd	0.061573792
2	0x3e840667	0.25786135
3	0x3dcb3e85	0.09924034
4	0x3e0ee4ef	0.13954519
5	0x3eca15e3	0.39469823
6	0x3ddc3b84	0.10753539
7	0x3da37ef2	0.07983197
8	0x3e73d14d	0.2381031
9	0x3e6f5352	0.23371628
10	0x3dd60ee6	0.104520604
11	0x3e1cdc60	0.15318441
12	0x3ea53c77	0.32272694
13	0x3eb01028	0.34387326
14	0x3fcdc42e	1.6075494
15	0x3e7222a7	0.23646031
16	0x3e546dad	0.20744963
17	0x3def1346	0.11673598
18	0x3d99bdef	0.0750693
19	0x3e9de518	0.30838847
20	0x3ea44151	0.32081082
21	0x3e8e2451	0.27762082
22	0x3cf414da	0.029795099
23	0x3dd5dbb5	0.104422964
24	0x3eb327ff	0.34991452
25	0x3e248616	0.16066775
26	0x3dc68813	0.09693923
27	0x3e877f77	0.26464435
28	0x3f0be6e3	0.5464918
29	0x3da313a3	0.0796273
30	0x3e05a3b8	0.13050735
31	0x3d45c81f	0.048286553

weight f4 [64, 32, 3, 3]
0	0xbd28075c	-0.041022643
1	0x3ad1740c	0.0015980019
2	0x3c1d309e	0.009594111
3	0xbd30eeeb	-0.0431966
4	0x3cb37afc	0.02190923
5	0xbd926029	-0.07147247
6	0x3c906c67	0.017629815
7	0x3d0c9fd2	0.034332104
8	0x3c9f5dd6	0.019453924
9	0xbcdca71d	-0.026935155
10	0xbd6bb38d	-0.05754428
11	0x3d924b66	0.07143287
12	0xbd283166	-0.041062735
13	0xbd815007	-0.06314092
14	0xbdac3c3c	-0.08409926
15	0xbca570fb	-0.020195475
16	0xbbcea6bc	-0.0063064974
17	0xbd700747	-0.05860069
18	0xbdaccae1	-0.084371336
19	0x3b7cc708	0.003857078
20	0x3d8fd9cb	0.070239626
21	0x3cb3be65	0.021941373
22	0xbe02f7a0	-0.12789774
23	0xbdb7a9d6	-0.089679405
24	0xbd833b50	-0.06407797
25	0xbe05df25	-0.13073404
26	0xbdd721e4	-0.10504511
27	0x3d17570a	0.03694824
28	0x3d403933	0.04692955
29	0xbc19dcf2	-0.009391056
30	0x3c0f6785	0.008752708
31	0x3dc04951	0.09388984
32	0x3dc1213d	0.09430168
33	0x3b70f372	0.0036766198
34	0x3d4c2946	0.04984405
35	0x3b5d154b	0.0033734615
36	0xbbd0d95f	-0.006373569
37	0xbd952bc8	-0.07283741
38	0x3d3d3667	0.04619446
39	0x3b692dc9	0.0035580269
40	0xbd9dcdcb	-0.077052675
41	0xbc5ce4da	-0.013482297
42	0xbbd6e7bd	-0.006558387
43	0xbdf4bd95	-0.119502224
44	0xbe09e623	-0.13466696
45	0xbbd2bf36	-0.0064314855
46	0x3c88e923	0.01671273
47	0xbbc113fb	-0.0058922744
48	0x3d5e1dae	0.054227524
49	0x3c21096d	0.009828907
50	0xbd05a77e	-0.032630436
51	0x3cdd0e41	0.026984336
52	0x3d67e537	0.05661508
53	0xbca4e6ac	-0.020129524
54	0x3d717fa3	0.058959614
55	0x3c100a1a	0.008791471
56	0x3cb34638	0.021884069
57	0xbb7a373e	-0.00381799
58	0xbd2e116a	-0.042497076
59	0x3cea119c	0.02857285
60	0xbd464253	-0.048403095
61	0xbd6270f3	-0.055283498
62	0x3d140c93	0.036144804
63	0x3c9b2a55	0.018941084
64	0xbc34aacc	-0.011027049
65	0xbd6ab4c1	-0.057301287
66	0x3d599b6d	0.05312674
67	0x3d0c3cfc	0.034237847
68	0x39b1561d	0.0003382423
69	0x3cecc27b	0.02890133
70	0x3d00c885	0.03144123
71	0x3d8513cb	0.06497916
72	0xbcb11308	-0.02161552
73	0x3caeb097	0.021324439
74	0x3d2c5016	0.042068563
75	0x3bd6136a	0.006533076
76	0x3ca58cad	0.020208681
77	0xbdeee2e2	-0.11664368
78	0x3cef0e2d	0.029181564
79	0x3d81554d	0.06315098
80	0xbda00dc0	-0.078151226
81	0x3c5f044c	0.013611864
82	0x3c701bae	0.014655037
83	0x3d55e6b6	0.052221976
84	0xbd81990f	-0.06328022
85	0xbcbf5168	-0.023354247
86	0x3d638409	0.05554584
87	0xbd35765b	-0.044302326
88	0xbd0019b5	-0.031274516
89	0xbd41340b	-0.047168773
90	0xbdaf9e03	-0.0857506
91	0x3db190c8	0.08670193
92	0x3e1300a8	0.14355719
93	0xbd8f3944	-0.069933444
94	0x3cf83a7f	0.03030133
95	0x3c8f09b5	0.017460683
96	0xbddd011a	-0.10791226
97	0xbda6ca7d	-0.0814409
98	0xbbbb1c6f	-0.0057101767
99	0xbc5df34d	-0.013546777
100	0x3d12a770	0.035804212
101	0xbadc8923	-0.0016825538
102	0x38b71fbf	8.732033e-05
103	0xbc525ccf	-0.01283951
104	0x3c0aea09	0.00847865
105	0xbd0365d0	-0.032079518
106	0xbd01f6b8	-0.03172943
107	0x3b21db0c	0.0024697213
108	0xbc61c9e3	-0.013781044
109	0xbc17ef18	-0.009273313
110	0x3d0e6260	0.034761786
111	0x3d77c376	0.06048914
112	0xbc3f318a	-0.011669526
113	0x3c0f0f93	0.0087317405
114	0x3d0452b2	0.032305427
115	0x3d9586b0	0.0730108
116	0x3cf30913	0.029667413
117	0x3bc1c58b	0.0059134415
118	0x3dbc9096	0.09207265
119	0x3d8e8f97	0.06960981
120	0xbd8acc16	-0.067772076
121	0xbda8cb1a	-0.082418635
122	0x3d7478f1	0.05968565
123	0xbdff5710	-0.12467778
124	0xbda274d6	-0.07932441
125	0xbddf6803	-0.109085105
126	0xbdeef852	-0.11668457
127	0xbc855f6a	-0.016280849
128	0xbac7b459	-0.0015236243
129	0x3cbaabca	0.022786994
130	0xbca9f47a	-0.020746458
131	0x3d32d29a	0.043657877
132	0x3a784475	0.000947065
133	0xbd0f94fb	-0.03505419
134	0xbc8d17ca	-0.017223258
135	0xbd73399f	-0.059381124
136	0xbdd0127f	-0.10159778
137	0xbdce9f39	-0.10088963
138	0x3d788580	0.06067419
139	0x3c84db91	0.016217979
140	0xbe10e7df	-0.14150952
141	0x3cb97551	0.022638949
142	0x3d9100b2	0.07080211
143	0xbd0e5361	-0.034747485
144	0x3bf36ab8	0.0074284934
145	0xbcce4b26	-0.025182318
146	0xbd37e9a2	-0.044900544
147	0x3d4e03b5	0.050296504
148	0xbc983f0e	-0.018584754
149	0xbdf4bd77	-0.119502
150	0x3e014cea	0.12626997
151	0x3dd5f128	0.104463875
152	0x3ce4f7d2	0.027950201
153	0xbc95ceaf	-0.018287031
154	0x3d7fec07	0.062480953
155	0x3d450984	0.048104778
156	0xbd43d66d	-0.047811914
157	0x3d2f962c	0.042867824
158	0xbd91db7c	-0.071219414
159	0xbd4bfbea	-0.04980079
160	0xbd42be4e	-0.04754477
161	0xbcf0b2ed	-0.029382193
162	0xbbb19e90	-0.0054205135
163	0xbd57cac2	-0.0526836
164	0xbd8b17b7	-0.067916326
165	0x3dc5764b	0.09641703
166	0x3d792bce	0.06083279
167	0xbd90a0fe	-0.07061957
168	0xbca9479f	-0.020664034
169	0x3dbb0658	0.09132069
170	0xbbd5d2eb	-0.0065253875
171	0x3c853fb9	0.016265737
172	0x3ce356b6	0.027751308
173	0x3c049fec	0.008094769
174	0xbc0de411	-0.008660332
175	0xbd6f3ad2	-0.058405705
176	0xbe013c81	-0.12620737
177	0x3c1da735	0.009622385
178	0x3d66db80	0.056361675
179	0xbceb27d5	-0.028705517
180	0x3d49f56b	0.049306314
181	0x3cf44d51	0.029822024
182	0x3c1453e8	0.009053208
183	0xbd2f559c	-0.042806253
184	0xbd41369d	-0.047171224
185	0xbd18300a	-0.03715519
186	0xbdb1049e	-0.08643459
187	0xbdf0bafe	-0.11754416
188	0xbe2a08de	-0.16604945
189	0xbca251bc	-0.019814365
190	0x3d7d65c0	0.061864614
191	0x3d63b24b	0.055589955
192	0xbd80f5a7	-0.062968545
193	0xbd4397de	-0.047752254
194	0xbd31182c	-0.043235943
195	0xbd8e550e	-0.06949817
196	0xbcd9b60c	-0.026576065
197	0xbd1f283f	-0.03885674
198	0xbdbe8438	-0.093025625
199	0xbce916e1	-0.028453292
200	0xbd19c3be	-0.03754019
201	0x3cb0c434	0.021577932
202	0xbca5d221	-0.020241799
203	0x3d4900f6	0.049073182
204	0xbc97ea97	-0.018544478
205	0x3bbae498	0.00570352
206	0x3d178d46	0.036999963
207	0xbc21fac8	-0.009886451
208	0xb9279e23	-0.00015985272
209	0x3ce4da99	0.027936267
210	0x3d3b462f	0.04572123
211	0xbc80658d	-0.015673423
212	0xbd59be8e	-0.053160243
213	0x3d73602c	0.05941789
214	0x3d3a06a7	0.0454165
215	0xbc469d68	-0.0121224895
216	0x3d74e638	0.059789866
217	0x3d8109ae	0.063006744
218	0x3d491c0c	0.049099013
219	0xbd8d1893	-0.06889453
220	0xbd45363a	-0.048147418
221	0xbc1a2aa5	-0.009409581
222	0x3cad96fb	0.021190157
223	0xbdbbc2e3	-0.09168031
224	0x3ccf2d80	0.02529025
225	0xbc724578	-0.01478707
226	0x3cc1e562	0.023668949
227	0x3d51bdb6	0.051206313
228	0xbd01f667	-0.03172913
229	0x3d4baad3	0.049723458
230	0xbd99ebda	-0.07515688
231	0xbd1414ff	-0.036152836
232	0x3d327993	0.043572973
233	0xbc3eb7e0	-0.011640519
234	0xbc3bc036	-0.011459401
235	0xbd335360	-0.043780684
236	0xbdc64e00	-0.09682846
237	0xbdb924b6	-0.09040205
238	0xbcfa98cc	-0.030590437
239	0xbe000053	-0.12500124
240	0xbd7ee8da	-0.062233783
241	0x3d77a779	0.06046245
242	0x3ba4edcd	0.005033231
243	0xbde2b28b	-0.110692106
244	0xbd79a7db	-0.060951095
245	0xbd3be540	-0.045872927
246	0x3d38095d	0.044930805
247	0x3d88de3d	0.066830136
248	0xbd1b1f51	-0.037871663
249	0xba0d8905	-0.00053991406
250	0x3d13c655	0.036077816
251	0x3a8f1111	0.001091512
252	0xbccf1039	-0.02527629
253	0x3c544b1c	0.012957361
254	0xbd25e3fb	-0.040500622
255	0x3cc1e12a	0.023666937

bias f4 [64]
0	0xbd2830d0	-0.041062176
1	0x3c376133	0.011192608
2	0xbd2efc73	-0.042721223
3	0x3d324069	0.043518458
4	0xbd60896d	-0.05481856
5	0x3d65699f	0.05600893
6	0xbcfadfc4	-0.030624278
7	0x399ebe3e	0.0003027785
8	0x3d353862	0.044243224
9	0x3cfd390b	0.03091099
10	0xbd094ec8	-0.033522397
11	0x3d4b9b93	0.049708914
12	0x3d54ad14	0.051922873
13	0x3d2e1328	0.042498738
14	0xbb06300b	-0.0020475413
15	0xbd4f9af9	-0.050684903
16	0xba972a9d	-0.0011533085
17	0xbcd04071	-0.025421353
18	0x3cb8e1d0	0.022568613
19	0xbccf2e35	-0.025290588
20	0xbbb00d0c	-0.005372649
21	0x3d084908	0.033272773
22	0x3ca61063	0.020271486
23	0x3c0102f3	0.007874238
24	0xbc6c27ba	-0.014413768
25	0xbd2631a7	-0.040574696
26	0xbd35ba0d	-0.044366885
27	0x3d0c93b5	0.034320552
28	0xbd275b0e	-0.04085832
29	0x3d4aa507	0.04947379
30	0x3d6637d9	0.056205604
31	0x3c926b8d	0.01787355
32	0x3bd981e6	0.0066377996
33	0xbcd7a93a	-0.02632581
34	0xbd0f3cd2	-0.034970112
35	0x3c264cef	0.010150178
36	0xbc0d3503	-0.008618596
37	0x3d5ed269	0.05439988
38	0xbd4e78b3	-0.050408076
39	0xbc87788c	-0.016536973
40	0x3bf7ff52	0.0075682783
41	0x3c972aa1	0.018452944
42	0xbc579d87	-0.013160116
43	0xbcc59e81	-0.024123432
44	0xbccca0fc	-0.024979107
45	0xbc4609dc	-0.012087312
46	0xbd124cbb	-0.035717707
47	0x3d510d7f	0.05103826
48	0x3d41dde5	0.047330756
49	0xbb182a96	-0.0023218743
50	0x3b036391	0.002004836
51	0xbc779ca1	-0.015113027
52	0xbcf63ed8	-0.030059263
53	0x3d025dc0	0.03182769
54	0x3cfca0ac	0.030838333
55	0x3d841c3b	0.06450697
56	0xbc88dd02	-0.016706947
57	0x3ce7b27e	0.028283354
58	0x3c9c8c2d	0.01910981
59	0xbd017042	-0.031601198
60	0xbcec5a6c	-0.02885171
61	0x3d019220	0.031633496
62	0xba186461	-0.00058132975
63	0xbd5e37d6	-0.054252468

weight f4 [64]
0	0x3f80f766	1.00755
1	0x3f821187	1.0161599
2	0x3f604f48	0.87620974
3	0x3f8627d7	1.0480908
4	0x3f83c98b	1.0295881
5	0x3f82c3ce	1.0216005
6	0x3f6fc4d0	0.9365969
7	0x3f86cc4c	1.0531096
8	0x3f8ce7ad	1.1008202
9	0x3f861b5c	1.04771
10	0x3f9e2f48	1.2358179
11	0x3f73ca48	0.9523053
12	0x3f84ba73	1.03694
13	0x3f83ef94	1.0307488
14	0x3f7c8e77	0.98654884
15	0x3f6a0d5d	0.9142664
16	0x3f84ec3e	1.0384595
17	0x3f6c4d21	0.9230519
18	0x3f7f9f56	0.998525
19	0x3f8527e6	1.0402801
20	0x3f603aa3	0.8758947
21	0x3f647976	0.89247835
22	0x3f8a61e0	1.0811119
23	0x3f7b3ca6	0.9813942
24	0x3f905fb6	1.1279209
25	0x3f798f5d	0.9748438
26	0x3f991502	1.1959536
27	0x3f74099d	0.9532717
28	0x3f80da79	1.0066673
29	0x3f8dba24	1.1072431
30	0x3f859f43	1.0439228
31	0x3f47b585	0.7801135
32	0x3f862399	1.0479614
33	0x3f806c1f	1.0032996
34	0x3f7641d9	0.96194226
35	0x3f77e5c0	0.96834946
36	0x3f74f536	0.9568666
37	0x3f7fff8f	0.99999326
38	0x3f7d8517	0.99031204
39	0x3f8b9fc6	1.0908134
40	0x3f83e38d	1.0303818
41	0x3f65857a	0.89656794
42	0x3f58db52	0.84709656
43	0x3f71399b	0.94228524
44	0x3f6e1db4	0.93014073
45	0x3f8416d0	1.0319462
46	0x3f73a1f8	0.9516902
47	0x3f803613	1.0016502
48	0x3f7cbb10	0.98722935
49	0x3f3863e6	0.7202743
50	0x3f69a882	0.9127275
51	0x3f55bde4	0.83492875
52	0x3f863351	1.048441
53	0x3f6b1472	0.9182807
54	0x3f7ea9d3	0.9947788
55	0x3f9c4fb1	1.221182
56	0x3f76b361	0.9636746
57	0x3f80b6bc	1.0055766
58	0x3f71d00c	0.9445808
59	0x3f84f364	1.0386777
60	0x3f39e2b3	0.7261154
61	0x3f84b974	1.0369096
62	0x3f86498a	1.0491192
63	0x3f83ec9f	1.0306586

bias f4 [64]
0	0xbdeb370c	-0.11485109
1	0xbdebc8f3	-0.115129374
2	0xbe8c2807	-0.27374288
3	0xbddfee41	-0.10934115
4	0xbe749ac7	-0.23887168
5	0xbe4ecbf5	-0.20194991
6	0xbe88d28c	-0.26723135
7	0xbeb4623c	-0.35231197
8	0xbe591a0a	-0.2120134
9	0xbe373f7a	-0.17895308
10	0xbdb624f2	-0.088937655
11	0xbea9745b	-0.33096585
12	0xbe8a179f	-0.26971146
13	0xbdd3ea8b	-0.1034747
14	0xbe762258	-0.24036539
15	0xbe931abf	-0.28731343
16	0xbe06eb08	-0.13175595
17	0xbecb544a	-0.39712745
18	0xbe026e56	-0.12737402
19	0xbe5b3fda	-0.21411076
20	0xbe8c4eb0	-0.27403784
21	0xbe33ec9b	-0.17570727
22	0xbe51698d	-0.2045042
23	0xbe411ea5	-0.18859346
24	0xbedd8cda	-0.43271524
25	0xbe0dd493	-0.13850622
26	0xbcca0eaa	-0.024665195
27	0xbe9097b9	-0.28240755
28	0xbed07c09	-0.4071963
29	0xbd9e6b8c	-0.07735357
30	0xbe0256b9	-0.12728395
31	0xbee619f7	-0.44941685
32	0xbead3561	-0.33829787
33	0xbeb49e8f	-0.3527722
34	0xbeb517c4	-0.35369694
35	0xbe3f8ac7	-0.18705283
36	0xbe19e6c9	-0.15029444
37	0xbda3ee50	-0.08004439
38	0xbe630e45	-0.22173412
39	0xbdd5fa2e	-0.104481086
40	0xbe3ab2fe	-0.18232343
41	0xbe954dc6	-0.291609
42	0xbe9bf519	-0.30460432
43	0xbe3dbe0f	-0.18529533
44	0xbeb4f08d	-0.35339776
45	0xbe8e7e0b	-0.27830538
46	0xbe9248c1	-0.28571132
47	0xbec0580f	-0.37567183
48	0xbe93e7c6	-0.28887767
49	0xbeb80f9f	-0.35949418
50	0xbe7b153b	-0.24519818
51	0xbe98e41c	-0.29861534
52	0xbe3e4663	-0.18581538
53	0xbe09e0f4	-0.13464719
54	0xbe720800	-0.23635864
55	0xbe0f846e	-0.14015362
56	0xbe1117d9	-0.14169253
57	0xbebd4039	-0.3696306
58	0xbec7b0ae	-0.39001983
59	0xbe269123	-0.16266303
60	0xbee786fd	-0.45220175
61	0xbe5f69ba	-0.21817675
62	0xbebbc4ef	-0.36673686
63	0xbea76966	-0.326976

running_mean f4 [64]
0	0xbfa65ad3	-1.2996467
1	0xbfa3d2de	-1.2798727
2	0xbfba8b3f	-1.4573745
3	0xbf6eff58	-0.93358374
4	0xbf7edf0b	-0.99559087
5	0xbfd99aa9	-1.7000324
6	0xbeb66550	-0.3562417
7	0xbed7e2e4	-0.4216529
8	0xbfcf3ed6	-1.6191051
9	0xbf10d542	-0.56575406
10	0xbeda5250	-0.42640924
11	0xbfd8194a	-1.6882718
12	0xbfa92cb3	-1.3216766
13	0xbecba4ec	-0.39774263
14	0xbf9bbfe0	-1.2167931
15	0xbf966f3a	-1.1752694
16	0xbed6e425	-0.41970935
17	0xbebcae0e	-0.36851543
18	0xbf84a597	-1.0363034
19	0xbf975476	-1.182265
20	0x3e24acd9	0.16081561
21	0xbfaf7566	-1.3707702
22	0xbccb2860	-0.024799526
23	0xbfd140d2	-1.6347907
24	0x3dc0e09b	0.0941784
25	0xbfce283f	-1.6106032
26	0xbf90b933	-1.1306518
27	0xbf3469d4	-0.7047398
28	0xbf844e68	-1.0336428
29	0xc0051315	-2.0792897
30	0xbedd048d	-0.43167534
31	0xbd027c4a	-0.031856813
32	0xbdf8eaf7	-0.12154191
33	0xbfaafdb9	-1.335868
34	0xbf21d0d4	-0.6320927
35	0xbf876708	-1.0578318
36	0xbfce5828	-1.6120653
37	0xbf839a80	-1.0281525
38	0xbf2e0c18	-0.67987204
39	0xbfbf5aa0	-1.4949532
40	0x3ead0836	0.33795327
41	0xbf791949	-0.9730421
42	0x3e8c900d	0.27453652
43	0xbf8df250	-1.1089573
44	0xbf838a92	-1.0276663
45	0xbfaf16c5	-1.3678824
46	0xbf38f6b5	-0.72251445
47	0xbfb15cb4	-1.3856416
48	0xbf0ab6fb	-0.54185456
49	0x3e41ecec	0.18938035
50	0xbfb4d858	-1.4128523
51	0xbf85fd68	-1.0467958
52	0xbe92a6fe	-0.2864303
53	0xbfab4cce	-1.3382814
54	0xbfb3e50e	-1.4054277
55	0xbef3f1b5	-0.47645345
56	0xbf493de3	-0.78610057
57	0xbf94dcd9	-1.1629897
58	0xbf16fde1	-0.5898114
59	0xbfd1b634	-1.6383729
60	0xbe82727e	-0.25477976
61	0xbf00218d	-0.50051194
62	0xbf231fd5	-0.63720447
63	0xbf011d8b	-0.50435704

running_var f4 [64]
0	0x3f910509	1.1329662
1	0x40389e84	2.884675
2	0x3ff7e3a7	1.9366349
3	0x4003aaa6	2.0572906
4	0x4014205d	2.3144753
5	0x3ff2e876	1.8977191
6	0x4015ac20	2.3386307
7	0x4003197b	2.0484302
8	0x40573663	3.3626945
9	0x4018fbc7	2.3903673
10	0x3fa82189	1.3135234
11	0x4093d504	4.619753
12	0x400e118d	2.2198212
13	0x403b7f18	2.9296322
14	0x3fc44ae5	1.5335356
15	0x3f539068	0.8264222
16	0x3fc94cba	1.572654
17	0x3f920db3	1.1410431
18	0x3f896439	1.073371
19	0x3f8aeba7	1.0853165
20	0x401df410	2.4680214
21	0x401407b2	2.3129697
22	0x3f93d676	1.1549823
23	0x3f9ed861	1.2409784
24	0x3fdb6157	1.7139081
25	0x406e3bbb	3.7223957
26	0x40637125	3.5537808
27	0x4012d028	2.2939548
28	0x4073735d	3.8039162
29	0x3fc48844	1.5354085
30	0x3ff12f93	1.8842643
31	0x3f6cbb08	0.9247289
32	0x3fa827ac	1.3137107
33	0x3fe7e9ad	1.8118187
34	0x3fcca3fb	1.5987543
35	0x3f72e8ee	0.9488667
36	0x3fc5346b	1.5406622
37	0x3ffa1382	1.9537203
38	0x3fe8df61	1.819317
39	0x403188b3	2.7739685
40	0x3fbf8b3a	1.4964364
41	0x3f9c9f90	1.2236195
42	0x3f8feba8	1.1243792
43	0x406bc92b	3.6841533
44	0x3f9b071e	1.2111547
45	0x3fca185b	1.5788683
46	0x405ce834	3.4516726
47	0x3fbbc48c	1.4669356
48	0x4003f655	2.06191
49	0x4064f8bb	3.5776813
50	0x3fd7c87a	1.6858056
51	0x3f93beb3	1.1542572
52	0x3feecd9b	1.8656496
53	0x3fa2469f	1.2677802
54	0x400d5c2f	2.2087514
55	0x3feec2f4	1.8653245
56	0x3ffd0ad4	1.976893
57	0x3f9bf162	1.2183039
58	0x3ffe3cce	1.9862306
59	0x3fb2ae4a	1.3959439
60	0x3f7c10d3	0.9846317
61	0x400c3832	2.19093
62	0x3ffc798b	1.9724592
63	0x400b4c34	2.176526

weight f4 [128, 64, 3, 3]
0	0x3b80e10d	0.003933078
1	0x3db5a29a	0.088689044
2	0x3d6930d7	0.056931343
3	0x3d9769b6	0.0739321
4	0x3d7af0df	0.06126487
5	0xbcdf457c	-0.027254812
6	0xbd59c52b	-0.05316655
7	0xbcf868a2	-0.03032333
8	0xbce8a19a	-0.02839737
9	0xbd432874	-0.047646
10	0x3d3e5906	0.046471618
11	0x3d976aea	0.07393439
12	0x3d2b9f11	0.041899744
13	0x3cc19bbe	0.023633834
14	0xbcc8b137	-0.024498565
15	0xbcb945c8	-0.022616282
16	0xbd8d5423	-0.069008134
17	0xbab0e2bf	-0.001349531
18	0x3cf783b1	0.030214163
19	0x3d689d27	0.056790497
20	0x3c96ebb7	0.018422944
21	0xbc35a970	-0.01108776
22	0xbd1d095a	-0.038338996
23	0xbd65eab8	-0.05613205
24	0xbcd7f76e	-0.0263631
25	0xbd0a096b	-0.033700388
26	0xbcbdc1b7	-0.02316366
27	0xbd2697b0	-0.040672004
28	0xbc9bac75	-0.019003132
29	0xb9c752a3	-0.00038017807
30	0x3cef4065	0.02920551
31	0x3bcfa718	0.006337058
32	0xb93f247c	-0.00018228771
33	0xbcae38ab	-0.021267256
34	0xbd9a2237	-0.07526057
35	0xbd09e5da	-0.03366647
36	0xbb64c39c	-0.0034906631
37	0x3c186d8b	0.009303461
38	0xbd6e5359	-0.058184955
39	0x3db1ea84	0.086873084
40	0x3cf2ddf4	0.029646851
41	0x3c398d27	0.011325157
42	0xbccc6488	-0.02495028
43	0x3c84360f	0.016139058
44	0x3d16e92b	0.03684346
45	0x3d271ad1	0.04079706
46	0xbc90e2e2	-0.017686311
47	0xbca91b3f	-0.020642875
48	0x3d8e2730	0.06941068
49	0x3d2988fe	0.04139041
50	0xbde0f68f	-0.10984527
51	0x3d4546dd	0.048163284
52	0x3d92fc14	0.07176986
53	0xbd84c877	-0.06483548
54	0x3b8b2eb1	0.0042475094
55	0x3da804db	0.08204051
56	0xbdb7eebc	-0.08981082
57	0x3cef2e71	0.02919695
58	0x3cc56fa9	0.024101095
59	0xbdb407c6	-0.08790545
60	0xbd00ec02	-0.031475075
61	0xbcde0ccd	-0.027105713
62	0x3d356503	0.044285785
63	0x3b59bbd3	0.0033223524
64	0xbd5f2c32	-0.054485507
65	0xbdb0f140	-0.08639765
66	0xbb4b3f48	-0.003101306
67	0x3bbe737e	0.0058121076
68	0xbd7b63a3	-0.061374318
69	0xbc2588af	-0.010103389
70	0x3bcea093	0.006305763
71	0x3d185b90	0.037196696
72	0x3d978953	0.073992394
73	0xbcd5436b	-0.026033124
74	0xbd844e9f	-0.06460308
75	0x3d5062ef	0.0508756
76	0x3d3e500b	0.046463054
77	0x3c5402bd	0.012940106
78	0xbd3b686b	-0.045753878
79	0x3d332752	0.04373867
80	0x3dee8af5	0.11647598
81	0xbc769c25	-0.015051876
82	0x3c5dbdae	0.013533993
83	0xbd25b379	-0.04045436
84	0x3cbe859a	0.023257066
85	0x3d3243ec	0.043521807
86	0x3c79f982	0.015257241
87	0xbcdb8167	-0.026795102
88	0x3d0d1269	0.034441385
89	0x3b2a20a2	0.0025959392
90	0x3c9e4396	0.019319337
91	0x3d4a09a1	0.04932559
92	0xbdba95b2	-0.09110583
93	0x3d313469	0.043262873
94	0x3cc0ec4f	0.02355018
95	0xbdd11e67	-0.10210877
96	0x3c93d073	0.018043732
97	0xbc7c9ecb	-0.015418719
98	0xbde5b75e	-0.11216615
99	0x3c0b249a	0.008492613
100	0x3d593750	0.053031266
101	0xbcf8865f	-0.03033751
102	0xbb3f74ec	-0.0029213978
103	0xbd480e38	-0.048841685
104	0xbd292cb8	-0.041302413
105	0x3d358bf6	0.04432293
106	0xbce8389b	-0.028347304
107	0x3d83c9d8	0.06434983
108	0x3be5abe4	0.0070090163
109	0xbadb4c70	-0.0016731154
110	0x3c03f297	0.008053443
111	0xbd046eae	-0.032332115
112	0xbc6393ec	-0.013890248
113	0x3de93c95	0.11388508
114	0x3dcdbed2	0.10046162
115	0x3dc472ee	0.095922336
116	0x3d16eb2f	0.036845382
117	0xbb964830	-0.004586242
118	0x3cc31b94	0.023816861
119	0xbde5a000	-0.11212158
120	0x3c23599e	0.009970097
121	0x3c65a66b	0.014016728
122	0xbdc0af47	-0.094084315
123	0xbd6bd29d	-0.057573903
124	0xbd5f4407	-0.054508235
125	0xbd7c3d01	-0.061581615
126	0x3c855dd6	0.016280096
127	0x3d103579	0.035207245
128	0xbd1c3533	-0.038136672
129	0x3ccf3da8	0.025297955
130	0x3c91bf2f	0.017791359
131	0xbc13ce6c	-0.009021383
132	0xbd2aa850	-0.04166442
133	0xbcfddf3a	-0.030990232
134	0x3c78e1ef	0.0151905855
135	0xbd5a4a94	-0.05329378
136	0x3d14f4c0	0.036366224
137	0x3c8c799d	0.017147833
138	0xbd73358e	-0.059377246
139	0x3c1118e9	0.008856037
140	0x3af40a7f	0.0018618851
141	0xbcdb0bf7	-0.026739104
142	0xbc64685e	-0.013940899
143	0xbd75855e	-0.059941642
144	0xbd0fd3ba	-0.035114028
145	0xbd4b370e	-0.04961305
146	0xbd3cb023	-0.046066415
147	0x3d593542	0.053029306
148	0xbcbbe0aa	-0.022934277
149	0x39ca8548	0.00038627745
150	0xbd600c7e	-0.054699413
151	0xbd8ced64	-0.06881216
152	0xbb84c676	-0.0040519787
153	0xbcd13dea	-0.025542218
154	0x3c842f03	0.016135698
155	0x3d09f59d	0.0336815
156	0x3ceb3239	0.028710471
157	0xbcd7990f	-0.026318101
158	0x3df58bc7	0.11989551
159	0x3cf75baa	0.030195076
160	0xbb66cefb	-0.0035218585
161	0x3d65c33d	0.056094397
162	0xbc1df631	-0.009641216
163	0x3aa366f7	0.0012466599
164	0xbd994278	-0.07483381
165	0x3c18690a	0.009302387
166	0x3d08f5fc	0.033437714
167	0xbd063c1f	-0.03277218
168	0xbd17915d	-0.037003864
169	0x3d6c9762	0.057761557
170	0x3d100ab1	0.035166446
171	0xbd3d3c03	-0.04619981
172	0xbd470063	-0.048584353
173	0x3d157374	0.036487058
174	0xbd4badc3	-0.04972626
175	0xbd5b4e5c	-0.053541526
176	0x3d2f4744	0.042792574
177	0x3c16023a	0.009155804
178	0x3c959cb6	0.018263202
179	0x3ce8ae66	0.028403472
180	0xbd47a50a	-0.048741378
181	0xbbe8acab	-0.0071006618
182	0xbcde96dc	-0.027171545
183	0x3cc359f5	0.023846606
184	0xbcb981c4	-0.022644885
185	0xbda399eb	-0.07988342
186	0xbd473871	-0.04863781
187	0xbb636b36	-0.0034701354
188	0xbce6000f	-0.0280762
189	0xbcaf742f	-0.021417705
190	0x3da97101	0.08273507
191	0x3d12e1d3	0.035859894
192	0x3cf255d2	0.029581938
193	0x3cee42d6	0.029084604
194	0x3d1f2413	0.038852762
195	0x3b632ca0	0.003466405
196	0x3d0996e6	0.033591174
197	0x3d757ba1	0.059932355
198	0x3cde9db3	0.027174806
199	0x3c0ba75c	0.008523788
200	0xbe374bab	-0.17899959
201	0x3bce57ca	0.0062970864
202	0xbc25e4f6	-0.010125389
203	0xbda1867b	-0.07886978
204	0xbd8f1934	-0.06987229
205	0xbd94a2e2	-0.0725763
206	0xbdcb365a	-0.09922476
207	0xbd161143	-0.036637556
208	0x3d8cedce	0.06881295
209	0xbd200ebe	-0.03907656
210	0x3d0c3a4b	0.03423528
211	0x3c0c8d09	0.008578547
212	0x3bec6e8b	0.007215326
213	0xbdaee6db	-0.08540126
214	0x3d94896c	0.07252774
215	0x3d2467b0	0.040137947
216	0xbdae2ed0	-0.085050225
217	0xbbbc7771	-0.005751543
218	0xbda1a680	-0.078930855
219	0x3d5e9930	0.05434531
220	0x3e1a8e95	0.15093453
221	0xbdd60296	-0.10449712
222	0xbd668854	-0.056282356
223	0x3d4a9289	0.049456153
224	0x3d8b8e7f	0.06814288
225	0x3c89696d	0.016773904
226	0x3cec9d87	0.028883709
227	0xbdafc5f8	-0.085826814
228	0xbc053702	-0.008130791
229	0x3dd0881d	0.101822115
230	0xbd7cebf4	-0.06174846
231	0xbb1dc88e	-0.0024075839
232	0xbc2adece	-0.010429097
233	0xbd067185	-0.032823104
234	0x3ab74eb6	0.001398525
235	0xbd324f4c	-0.043532655
236	0xbe1ca9ea	-0.15299192
237	0xbd988ec0	-0.074491024
238	0xbc87b358	-0.01656501
239	0xbd1e80a5	-0.038696904
240	0x3c93714e	0.017998364
241	0x3cb04381	0.021516563
242	0xbdc18936	-0.09449999
243	0xbb815159	-0.003946465
244	0xbb8cfced	-0.004302612
245	0xbd89eba5	-0.06734399
246	0xbd618989	-0.055062804
247	0x3bcdac93	0.006276676
248	0xbd869c64	-0.06572798
249	0xbd33cf88	-0.04389909
250	0xbcf3947d	-0.02973389
251	0x3c640315	0.01391675
252	0x3d8f7c4e	0.07006131
253	0x3d3db6b1	0.046316806
254	0xbd341ce2	-0.043972857
255	0xbc1f7078	-0.0097314045

bias f4 [128]
0	0x3ce03265	0.02736778
1	0xbbd1ffb8	-0.006408658
2	0xbd267087	-0.04063466
3	0x3c16f832	0.009214448
4	0x3cdf3ded	0.027251208
5	0xbc3c16d1	-0.011480049
6	0xbca37d4a	-0.019957203
7	0xbc91b6d8	-0.017787382
8	0xbc3bbda6	-0.01145879
9	0xbd12c283	-0.035830032
10	0xbc5b3211	-0.013378636
11	0x3c340c6a	0.010989288
12	0x3cc9cc02	0.024633411
13	0xbc22fa04	-0.009947304
14	0xbcf00d18	-0.029303119
15	0x3cc91db0	0.024550289
16	0x3c8131bf	0.015770791
17	0xbc94945d	-0.018137151
18	0xbc970a27	-0.018437458
19	0x3c329254	0.010899145
20	0x3b0413d0	0.002015341
21	0x3cc83dda	0.024443556
22	0x3bf5f59a	0.0075060846
23	0xbb705a29	-0.0036674833
24	0x3b571084	0.003281624
25	0xbd16145c	-0.03664051
26	0x3cf09aab	0.029370626
27	0x3cfd7fda	0.030944753
28	0xbcf48574	-0.029848792
29	0x3d1793e4	0.037006274
30	0x3ae77140	0.0017657652
31	0x3baf100a	0.005342488
32	0x3bb8b45c	0.005636735
33	0xbcb5738a	-0.02214982
34	0xbd025fb2	-0.031829543
35	0xbccdfa0a	-0.025143642
36	0x3caf9398	0.021432683
37	0x3d0b30aa	0.033981957
38	0xbc3fee6d	-0.01171456
39	0xbd230da7	-0.03980794
40	0x3d25a843	0.04044367
41	0x3ce6d8f0	0.028179616
42	0xbc01c412	-0.007920282
43	0x3c27c40f	0.010239615
44	0x3c2040a3	0.009781036
45	0xbd0370de	-0.03209006
46	0xbd0064f6	-0.031346284
47	0x3ca997d7	0.020702286
48	0x3cd87ada	0.026425768
49	0xbd111388	-0.035419017
50	0xbcaf6e4c	-0.021414898
51	0x3ccde2f8	0.025132641
52	0x3d2c1ba9	0.042018566
53	0x3cac297a	0.021015871
54	0x3cf18c2d	0.029485786
55	0xbc4fcc29	-0.012682953
56	0xbcb0e748	-0.021594658
57	0xbcc4964d	-0.02399745
58	0x3c3b8db9	0.0114473635
59	0xbcd94664	-0.026522823
60	0xbc3d87d8	-0.011568032
61	0x3ce62158	0.028092071
62	0x3c3a652e	0.011376662
63	0xbd00ea7f	-0.031473633
64	0x3ca7f6d8	0.020503446
65	0x3c982aca	0.01857509
66	0x3c375e7e	0.011191962
67	0x3cfc8ccd	0.030828858
68	0x3d14e3c1	0.036350016
69	0x3d05f2df	0.032702323
70	0xbd03ec88	-0.032207996
71	0x3cba131e	0.022714194
72	0xbc97ddff	-0.018538473
73	0x3ce31e0b	0.027724287
74	0x3d0001af	0.031251606
75	0xbc1aa0a6	-0.009437716
76	0xbceae657	-0.028674288
77	0x3ba8f119	0.005155694
78	0x3c995c3d	0.01872074
79	0x3d0a8558	0.033818573
80	0x3c2fc057	0.01072701
81	0xbcdb7e21	-0.026793541
82	0x3cf67de5	0.030089328
83	0xbb9660ed	-0.004589191
84	0xbcdb8e1d	-0.026801163
85	0x3cfa7043	0.030571109
86	0x3d0a8468	0.03381768
87	0x3ba047c0	0.0048913658
88	0xbc44ab47	-0.012003726
89	0x3a95a0a3	0.0011415671
90	0x3bfa7ac9	0.0076440317
91	0xbcfd8fb2	-0.030952308
92	0xbb882734	-0.004155064
93	0xbcf0e207	-0.029404653
94	0xbd1638f6	-0.036675416
95	0xbceda546	-0.029009473
96	0xbc043b71	-0.008070813
97	0xbc1d3cf8	-0.009597056
98	0xbd226d37	-0.039654937
99	0xbb08b47b	-0.0020859528
100	0x3c71ef1c	0.014766481
101	0xbced6f86	-0.028983843
102	0xbb648777	-0.0034870782
103	0xbc056191	-0.008140937
104	0xbc642ad0	-0.013926223
105	0xbc8dd96d	-0.01731559
106	0x3c63b106	0.013897186
107	0x3cd2a323	0.025712555
108	0xbcd95cc4	-0.026533492
109	0xbcb72f4e	-0.022361424
110	0xbd0034d2	-0.031300373
111	0x3c3a242f	0.011361166
112	0xbd0928be	-0.03348612
113	0xbcd58aca	-0.026067156
114	0x3b857cb5	0.004073704
115	0xbab258cb	-0.0013606785
116	0xbd0c19cd	-0.034204293
117	0xbbaba074	-0.0052376334
118	0x3cf24579	0.029574143
119	0x3c604788	0.013688929
120	0x3baab031	0.005208992
121	0xbd06e460	-0.03293264
122	0x3cecbbf4	0.028898217
123	0x3c30da18	0.010794185
124	0x39f994fd	0.00047603986
125	0x3c8819ed	0.016613925
126	0x3bb6a47f	0.0055738087
127	0x3c9c5261	0.01908225

weight f4 [128]
0	0x3f90a77f	1.1301116
1	0x3f89b3da	1.0758011
2	0x3f8a3098	1.079608
3	0x3f92e5e1	1.1476403
4	0x3f88a421	1.0675088
5	0x3f8b2c80	1.0872955
6	0x3f843d2c	1.0331168
7	0x3f8b64cf	1.0890139
8	0x3f8abd9b	1.0839113
9	0x3f84cfbd	1.0375897
10	0x3f8dbcb5	1.1073214
11	0x3f8718ef	1.0554484
12	0x3f881da8	1.063405
13	0x3f8a0e14	1.0785546
14	0x3f91217f	1.1338347
15	0x3f9181e0	1.136776
16	0x3f89ff35	1.0781008
17	0x3f910c30	1.1331844
18	0x3f8b612a	1.0889027
19	0x3f8366e2	1.0265772
20	0x3f926ca9	1.143941
21	0x3f97d169	1.1860782
22	0x3f8f2bf1	1.1185285
23	0x3f906adc	1.1282611
24	0x3f8e8a5e	1.1135976
25	0x3f8b4073	1.0879043
26	0x3f92a623	1.1456951
27	0x3f8cb60d	1.0993057
28	0x3f930175	1.148482
29	0x3f9169b2	1.1360381
30	0x3f8a4e84	1.0805211
31	0x3f917e61	1.1366693
32	0x3f83bfea	1.0292943
33	0x3f83b980	1.0290985
34	0x3f82fc0d	1.023317
35	0x3f85ea10	1.0462055
36	0x3f949f69	1.1611148
37	0x3f90fde4	1.1327481
38	0x3f8ade4b	1.0849088
39	0x3f856ac7	1.0423211
40	0x3f8fc39d	1.1231571
41	0x3f87a0c3	1.0595936
42	0x3f87da7e	1.0613554
43	0x3f87f809	1.0622569
44	0x3f8f01fe	1.1172483
45	0x3f89b611	1.0758687
46	0x3f9150cf	1.1352786
47	0x3f8dc03f	1.1074294
48	0x3f87f86c	1.0622687
49	0x3f837a7c	1.0271754
50	0x3f8588fd	1.043243
51	0x3f9245aa	1.142751
52	0x3f99dbeb	1.2020239
53	0x3f8b0164	1.0859799
54	0x3f8c1cd5	1.0946299
55	0x3f813677	1.0094746
56	0x3f899959	1.0749923
57	0x3f94d822	1.1628458
58	0x3f886f63	1.0658993
59	0x3f8d899b	1.1057619
60	0x3f8903a0	1.0704231
61	0x3f8420a4	1.0322461
62	0x3f8974f1	1.0738813
63	0x3f83ec3e	1.030647
64	0x3f85fdba	1.0468056
65	0x3f814b41	1.0101091
66	0x3f933c8d	1.1502854
67	0x3f8a98bc	1.0827861
68	0x3f8fc13a	1.1230843
69	0x3f94bbe9	1.1619846
70	0x3f876a97	1.0579404
71	0x3f8b4a30	1.0882015
72	0x3f8782f6	1.0586841
73	0x3f9b1da3	1.211842
74	0x3f8617ba	1.0475991
75	0x3f87fdfa	1.0624382
76	0x3f8c128d	1.0943161
77	0x3f8347da	1.0256302
78	0x3f910067	1.1328248
79	0x3f8557f4	1.0417466
80	0x3f8a41e3	1.0801357
81	0x3f87783b	1.0583566
82	0x3f8cbab9	1.0994483
83	0x3f8fe013	1.1240257
84	0x3f8a4dfb	1.0805048
85	0x3f8b142d	1.0865532
86	0x3f8da770	1.1066723
87	0x3f89ea4f	1.077463
88	0x3f8576ec	1.0426917
89	0x3f8a3372	1.079695
90	0x3f8d955f	1.106121
91	0x3f9325bb	1.149589
92	0x3f8e5eef	1.1122721
93	0x3f8ede7d	1.1161648
94	0x3f8639eb	1.0486425
95	0x3f8d3cdd	1.1034199
96	0x3f8c2c2a	1.0950978
97	0x3f890497	1.0704526
98	0x3f8bcf3d	1.0922619
99	0x3f85e9aa	1.0461934
100	0x3f927076	1.144057
101	0x3f8e8ce3	1.1136745
102	0x3f891fea	1.0712864
103	0x3f8aa2ef	1.0830973
104	0x3f902d81	1.1263887
105	0x3f8c3af6	1.0955493
106	0x3f913037	1.1342839
107	0x3f90c93b	1.1311411
108	0x3f8e9623	1.1139568
109	0x3f916342	1.1358416
110	0x3f8e173e	1.1100843
111	0x3f931427	1.1490525
112	0x3f8f5b14	1.119967
113	0x3f8d02c7	1.1016473
114	0x3f89cc87	1.0765542
115	0x3f8b70d0	1.0893803
116	0x3f8bfb00	1.0935974
117	0x3f8d3b21	1.103367
118	0x3f90ffbb	1.1328043
119	0x3f897e18	1.0741606
120	0x3f8a6fc8	1.0815363
121	0x3f8f078b	1.1174177
122	0x3f963b3e	1.1736829
123	0x3f8a17a1	1.0788461
124	0x3f8a93ff	1.0826415
125	0x3f867376	1.0503986
126	0x3f89115c	1.0708423
127	0x3f8dbe9f	1.1073798

bias f4 [128]
0	0xbe5118c0	-0.20419598
1	0xbdc33587	-0.09531694
2	0xbe2d4873	-0.16922168
3	0xbe16619f	-0.14685677
4	0xbe0e8524	-0.13917977
5	0xbe462c3a	-0.19352809
6	0xbe2d79a4	-0.16940933
7	0xbe13eba4	-0.14445359
8	0xbe64c08c	-0.22339076
9	0xbe0390c2	-0.1284819
10	0xbe4f7825	-0.20260675
11	0xbe2e2953	-0.17007951
12	0xbe36d685	-0.1785527
13	0xbe0f191f	-0.13974427
14	0xbe2f9774	-0.17147619
15	0xbe21fbd3	-0.1581872
16	0xbe377a16	-0.17917666
17	0xbde6c125	-0.11267308
18	0xbe55f004	-0.2089234
19	0xbe37d6f9	-0.179531
20	0xbe19afc5	-0.15008457
21	0xbe5706d6	-0.20998701
22	0xbe5c483c	-0.2151193
23	0xbe39b4f2	-0.18135431
24	0xbe21b796	-0.15792689
25	0xbe327e08	-0.1743089
26	0xbe4a75f3	-0.19771557
27	0xbe337746	-0.17525968
28	0xbd8033fa	-0.06259914
29	0xbe195e26	-0.14977321
30	0xbe42fa5f	-0.19040821
31	0xbe78cc34	-0.24296647
32	0xbe2123d9	-0.15736331
33	0xbe2e0b53	-0.16996507
34	0xbe26c475	-0.1628588
35	0xbe0ad562	-0.13557962
36	0xbe4c2242	-0.19934943
37	0xbe50fdcb	-0.20409314
38	0xbe421a81	-0.18955423
39	0xbe1ac5b4	-0.1511448
40	0xbe267e15	-0.16259034
41	0xbe47ffde	-0.195312
42	0xbe386d4d	-0.18010445
43	0xbe54dc60	-0.20787191
44	0xbe43abfc	-0.19108576
45	0xbe14d040	-0.14532566
46	0xbe754b23	-0.23954444
47	0xbe49f851	-0.19723631
48	0xbe3fc9ec	-0.18729371
49	0xbe218b93	-0.157759
50	0xbe3b426d	-0.18287058
51	0xbe3d05b1	-0.18459202
52	0xbe28fed1	-0.16503455
53	0xbe35f377	-0.17768656
54	0xbe16b901	-0.14719011
55	0xbe3feb46	-0.18742093
56	0xbe11cc2c	-0.14238042
57	0xbe614c04	-0.22001654
58	0xbe42ae9b	-0.19011919
59	0xbe2a88bf	-0.16653727
60	0xbe627e27	-0.22118436
61	0xbe47dfed	-0.19519015
62	0xbe349133	-0.17633514
63	0xbe090a6a	-0.13382879
64	0xbe4b6612	-0.19863155
65	0xbe33c022	-0.17553762
66	0xbe67d132	-0.22638395
67	0xbe7474ab	-0.2387263
68	0xbe25a6e2	-0.16176942
69	0xbde0eaa4	-0.10982254
70	0xbe077062	-0.13226464
71	0xbe30f9fc	-0.17282861
72	0xbe3f3ba4	-0.18675095
73	0xbe2c54ee	-0.16829273
74	0xbe100017	-0.14062534
75	0xbe35cfa4	-0.1775499
76	0xbe068492	-0.13136509
77	0xbe11352f	-0.14180444
78	0xbe33406a	-0.17505041
79	0xbe23ba95	-0.15989144
80	0xbe4e736c	-0.20161217
81	0xbe29bd91	-0.1657622
82	0xbd34c532	-0.044133373
83	0xbe58affd	-0.21160884
84	0xbe19e750	-0.15029645
85	0xbe296339	-0.16541757
86	0xbdfae55f	-0.1225078
87	0xbdc1b3d8	-0.094581306
88	0xbdcefd61	-0.10106922
89	0xbdf696c0	-0.12040472
90	0xbe4f57e6	-0.20248374
91	0xbe34af51	-0.17645003
92	0xbe129e5b	-0.1431822
93	0xbdb55047	-0.08853202
94	0xbe24b21f	-0.16083573
95	0xbe1cb925	-0.15305002
96	0xbe715f1c	-0.23571438
97	0xbe4df236	-0.20111927
98	0xbe1fcfdd	-0.15606637
99	0xbe2a6af5	-0.16642363
100	0xbe304e00	-0.17217255
101	0xbdb13fe2	-0.08654763
102	0xbe328653	-0.17434053
103	0xbe5370d1	-0.20648505
104	0xbe0b811c	-0.1362347
105	0xbe0f587b	-0.13998596
106	0xbe3f97af	-0.18710206
107	0xbe0a6fa0	-0.13519144
108	0xbe222ee1	-0.15838195
109	0xbe4a2cd2	-0.1974366
110	0xbd851b47	-0.06499343
111	0xbe3f5792	-0.18685749
112	0xbe0fcd2b	-0.14043109
113	0xbdb437cf	-0.08799707
114	0xbe2dc34c	-0.16969031
115	0xbde8d1b0	-0.1136812
116	0xbe3c5d77	-0.18395029
117	0xbe316118	-0.17322195
118	0xbe38aae7	-0.18033944
119	0xbe2ae9e5	-0.16690786
120	0xbe325070	-0.17413497
121	0xbe8002c8	-0.25002122
122	0xbdf878d5	-0.12132422
123	0xbe146803	-0.14492802
124	0xbe269837	-0.16269003
125	0xbe2ab7e0	-0.16671705
126	0xbe3ac8d0	-0.18240666
127	0xbe32e78b	-0.17471139

running_mean f4 [128]
0	0xbf55bd3a	-0.8349186
1	0xbf7883de	-0.97076213
2	0xbfd13627	-1.6344651
3	0xc008650b	-2.1311672
4	0xbfd46c3f	-1.6595534
5	0xbfaed10f	-1.365755
6	0xbfb4d1bb	-1.4126505
7	0xbfac3bcc	-1.3455749
8	0x3f49a072	0.78760445
9	0x3fff3982	1.9939425
10	0xbfe31b85	-1.7742773
11	0xbf977fe7	-1.1835908
12	0x3ccc1fb1	0.024917455
13	0xbfd1e030	-1.6396542
14	0xbffc4bfb	-1.9710687
15	0xbfd5268f	-1.6652392
16	0xbd6c2087	-0.057648208
17	0xc017232e	-2.3615222
18	0xbfc9fb97	-1.5779904
19	0xbf7999e4	-0.97500443
20	0xbfcfadaa	-1.6224873
21	0xbf93a7f9	-1.1535636
22	0xbff4dde7	-1.9130219
23	0xbf8c480b	-1.0959486
24	0xbff019ff	-1.8757933
25	0xbf7857c5	-0.97008926
26	0xbf9d4049	-1.2285243
27	0xbfe4a5fd	-1.7863156
28	0xc066f042	-3.6084142
29	0xbf838d62	-1.0277522
30	0xbf9187f2	-1.1369612
31	0xbf94d0f1	-1.1626264
32	0x3f91c9eb	1.1389745
33	0x3e4f58b9	0.20248689
34	0x400b1f60	2.17379
35	0xbef0231f	-0.46901795
36	0xbf819c86	-1.0125892
37	0xbf961584	-1.1725316
38	0xbfa30b8b	-1.2737898
39	0x3e66fd34	0.22557527
40	0xbebf3819	-0.37347487
41	0xbf898023	-1.0742229
42	0xbf94d4fc	-1.1627498
43	0xbe015c9d	-0.12632985
44	0x3dce2c6d	0.10067067
45	0xbf9f0994	-1.2424798
46	0xbfa0b3a7	-1.2554826
47	0xbfbe60f4	-1.4873338
48	0xbed9221a	-0.4240883
49	0xbe3dc03c	-0.18530363
50	0xbf1d90c6	-0.6154903
51	0xbe92b117	-0.28650734
52	0xbf474a78	-0.77848005
53	0xbfd8b63e	-1.6930616
54	0xbfb150af	-1.3852748
55	0x3fcbd9ff	1.5925902
56	0xbfaa1725	-1.3288313
57	0xbf1c7a39	-0.61123997
58	0xbe30a597	-0.17250668
59	0xbf410bdd	-0.75408727
60	0xbde43750	-0.111433625
61	0x3de4a915	0.11165062
62	0xbfba2908	-1.4543772
63	0xbf9e5399	-1.2369262
64	0x3f1ef6a4	0.62095094
65	0xbe283744	-0.16427332
66	0xbfb72065	-1.4306761
67	0xbf635007	-0.8879399
68	0xbffd6bf8	-1.9798574
69	0xbfaa42c9	-1.3301631
70	0xbf977e44	-1.1835408
71	0xbf8c2e23	-1.095158
72	0xbf9ddcf6	-1.2333057
73	0xbff0e8c5	-1.8821036
74	0xbf10b2a2	-0.5652257
75	0xbed26fbc	-0.41100872
76	0xc00afe1f	-2.1717603
77	0xc006e262	-2.1075673
78	0xbe2aea38	-0.1669091
79	0xbf23f386	-0.6404346
80	0xbf18936f	-0.59599966
81	0xbf65665e	-0.89609325
82	0xc054ec90	-3.3269386
83	0xc006762e	-2.100963
84	0xbf9c3ca0	-1.2206001
85	0xbfe2b2a5	-1.7710768
86	0xbfa0e53e	-1.2569959
87	0xc00570ea	-2.0850167
88	0xbf295cae	-0.6615704
89	0xc0488dcf	-3.1336553
90	0xc015aa4e	-2.3385196
91	0xbf337767	-0.7010407
92	0xbff62b95	-1.923205
93	0xc0108c92	-2.2585797
94	0x3d4e9db1	0.050443355
95	0xbe44a458	-0.19203317
96	0xbf939f6d	-1.1533028
97	0xbf41140d	-0.7542122
98	0xbf30630a	-0.6890112
99	0xbcd8f739	-0.026485072
100	0x3fa8edeb	1.3197607
101	0xbfd1b919	-1.6384612
102	0xbf6f2cfc	-0.93428016
103	0xbe523d19	-0.2053112
104	0xbfbeef4c	-1.4916778
105	0xbf95ee97	-1.1713437
106	0xbfbba0a2	-1.4658396
107	0xbff98ccd	-1.9496094
108	0xbfb89706	-1.4421089
109	0xbfeafa02	-1.8357546
110	0xc033cb26	-2.8092742
111	0xbff9fe17	-1.9530667
112	0xbf1d6de1	-0.61495787
113	0xc044e249	-3.0763113
114	0xbecee795	-0.40411058
115	0xc019b27a	-2.4015183
116	0xbfc8f804	-1.5700688
117	0xbf318e59	-0.6935783
118	0xbf754db1	-0.9582167
119	0xbfbb8105	-1.4648749
120	0xbf67f862	-0.9061338
121	0xbffc7891	-1.9724294
122	0xc05dcc46	-3.4655929
123	0x3f9ac9ad	1.2092797
124	0x3f6f7092	0.93531144
125	0xbf0a5d2c	-0.5404842
126	0xbf2eae48	-0.6823468
127	0xbfce4e18	-1.6117582

running_var f4 [128]
0	0x3f89c58d	1.0763413
1	0x40250f6f	2.579067
2	0x3fc25092	1.5180838
3	0x3f82c580	1.0216522
4	0x3f815397	1.0103635
5	0x3fad4235	1.353583
6	0x3fda4bce	1.7054384
7	0x3f72f7d8	0.9490943
8	0x3f3b62c2	0.7319757
9	0x3f77e54c	0.96834254
10	0x3f855878	1.0417624
11	0x3f711eb0	0.9418745
12	0x3f8291fe	1.0200803
13	0x3fa2da6a	1.2722905
14	0x3fa5e326	1.2959945
15	0x3fe5cba3	1.795277
16	0x3f23c403	0.63970965
17	0x3fa6420e	1.2988908
18	0x3f8d2ede	1.1029928
19	0x3f811bdd	1.0086628
20	0x3f90128a	1.1255658
21	0x3f7e8319	0.9941879
22	0x3f805bd9	1.002803
23	0x3f9daf3f	1.2319106
24	0x3f8a3ecb	1.0800413
25	0x3f7333a8	0.95000696
26	0x3f752bcd	0.9576996
27	0x3f95c4fa	1.1700737
28	0x4005f577	2.093107
29	0x3fb08361	1.3790094
30	0x3f8ba24e	1.0908906
31	0x3f8af9e4	1.085751
32	0x3f824217	1.0176419
33	0x3f5857c2	0.8450891
34	0x3f81a014	1.0126977
35	0x3f8ac1f4	1.084044
36	0x3fe5b4e3	1.7945827
37	0x3f97e9da	1.1868241
38	0x3fb1eaf4	1.3899827
39	0x3f5321eb	0.8247363
40	0x3fc917b7	1.5710362
41	0x3f56a9d0	0.83852863
42	0x3fcb1c66	1.5868042
43	0x3f5737a0	0.8406925
44	0x3f8e2176	1.1103961
45	0x3fc2500e	1.5180681
46	0x3f9c89a7	1.2229508
47	0x3f82fd90	1.0233631
48	0x3f38ad59	0.7213951
49	0x3f7910ab	0.9729106
50	0x3f145123	0.57936305
51	0x3fb1f5f7	1.3903188
52	0x3f957989	1.1677715
53	0x3f72b08e	0.9480065
54	0x3fa5ccc5	1.2953116
55	0x3f3a5546	0.72786367
56	0x3f9ca6fb	1.2238458
57	0x3f86c791	1.0529653
58	0x3f82886c	1.0197883
59	0x3fb48acf	1.4104861
60	0x3f4a325c	0.7898309
61	0x3f87fef9	1.0624686
62	0x3f5cab2b	0.8619868
63	0x3f91e407	1.1397713
64	0x3f5924f3	0.84822005
65	0x3f727d24	0.947222
66	0x3f7300f3	0.94923323
67	0x3f589228	0.84598017
68	0x3f914261	1.1348382
69	0x3fd0c52d	1.6310173
70	0x3f967973	1.1755813
71	0x3f818ca9	1.0121051
72	0x3f6d56fa	0.9271084
73	0x3fc64ea9	1.5492755
74	0x3f4990c0	0.78736496
75	0x3f835ef6	1.0263355
76	0x3f9f0074	1.2422013
77	0x3fc6d62a	1.5534108
78	0x3fbde9e8	1.4837008
79	0x3f84e4ba	1.0382302
80	0x3f54b457	0.83087677
81	0x3f42158b	0.7581412
82	0x4052559a	3.2864747
83	0x3f869a67	1.051587
84	0x3f775a24	0.9662192
85	0x3fba486e	1.4553354
86	0x3fa639cb	1.2986387
87	0x3f8a7761	1.0817682
88	0x3fa786ab	1.3087972
89	0x3fa87884	1.3161778
90	0x3f824837	1.0178288
91	0x3fb13db9	1.3846961
92	0x3f96366d	1.173536
93	0x3f81e705	1.0148627
94	0x3f20f58a	0.6287466
95	0x3f88d89f	1.0691108
96	0x3f575518	0.8411422
97	0x3f675e63	0.903784
98	0x3f8dcc52	1.1077979
99	0x3f31da3a	0.6947361
100	0x3f32fb20	0.69914436
101	0x3fadd41d	1.3580357
102	0x3f7f18d0	0.99647236
103	0x3f0ab6aa	0.54184973
104	0x3fb0a145	1.3799216
105	0x3fcdeba5	1.6087538
106	0x3f6bf550	0.9217119
107	0x3f3362af	0.70072454
108	0x3f8448f5	1.0334765
109	0x3f8aff99	1.0859252
110	0x40238a62	2.5553212
111	0x3f5796df	0.84214586
112	0x3f81cdf0	1.0140972
113	0x3fa93f4b	1.322244
114	0x3f89cb1f	1.0765113
115	0x3fb2cb9b	1.3968385
116	0x3f838747	1.0275658
117	0x3fb48dfb	1.4105829
118	0x3fa88fdf	1.3168906
119	0x3f6babed	0.9205921
120	0x3f714b60	0.9425564
121	0x3f63e950	0.8902788
122	0x4039c2ce	2.902515
123	0x3f6936aa	0.91099036
124	0x3f9b04d5	1.211085
125	0x3f9670d1	1.1753179
126	0x3f7201c8	0.9453397
127	0x3fa57038	1.2924871
